ports/esp32/components/esp-dl/tools/quantization_tool/examples/mnist_model_example.onnx (onnx, 439119 bytes, 6 tensors)

sequential/dense_2/MatMul/ReadVariableOp:0 f4 [64, 10]
00000000: 1149 0fbf e3c7 8b3e b068 903e 24c5 913e
00000010: 3dd1 c53c 9868 2bbe 9620 c73d 9764 7dbe
00000020: d07d c53e 8d88 213e c8b4 83be 0509 0c3e
00000030: 3cf0 51be 10dc c5be d5c0 1c3e 1755 d1bd
00000040: 96ca 72be a4e8 bfbe 1cf7 0f3d d652 c43e
00000050: a7e7 913e 9f05 d7be e87d bf3e e6cb 4a3e
00000060: c075 11bc 4b97 40be 670b a8be c8a1 5fbe
00000070: f098 973d 7dc8 4e3e 8bbd debd 06c7 9c3e
00000080: 944e 8e3e 4645 9dbe de10 b7be 7f85 32bd
00000090: d7be 3b3e 83a0 9a3d 1ac7 c5be 558a bebc
000000a0: e8ac 0cbe d92d 3cbe 9ef4 97bd bf02 6fbe
000000b0: 3b0b 53be 5687 46bd 5535 683e 25ac d0be
000000c0: b1fd edbb 165b 793d f833 d93c 183e 84be
000000d0: c1cc d93d 03d7 22be c371 04bf a98b ac3e
000000e0: 6e04 a3bc 3ea2 67be d0d2 923e d244 91be
000000f0: cec7 333e 0914 9dbe 96dc 5fbd 5aa4 dabe
00000100: c076 0f3e 56e0 8dbe 89a3 a93c 5eb1 233e
00000110: 348e a4bd 967a 243e e31e 25bf 3c14 5f3e
00000120: 56f2 7ebc 55d6 683e 7d34 273d 9c11 133e
00000130: e81d f5be 682a 7dbe 14aa 29be 066d a13d
00000140: a915 12bf c976 b23e e9ac 5a3d b62c 1dbe
00000150: fa4c edbe 42f0 4abd 358d 17bd 3d1e 743e
00000160: e944 1abe 2e22 eabe 8aef 463e d3fb 473e
00000170: 3f37 cd3b 1ce9 65bd bf45 bb3d 10f0 e3be
00000180: a9ac d3bd 3dc8 c43d f1d3 aabe 8dd9 083e
00000190: cd24 d7bd 387b 9dbe ae98 1f3e 1b4d c5be
000001a0: f8cb 963d 1696 59be be86 c6bd 28e2 b3be
000001b0: 2344 b1be 17c2 1b3e b4a0 933e 99e5 813e
000001c0: 7fe0 7cbe 8f4c 853d 6392 b6be a1c8 ed3d
000001d0: 18d1 09be 606d 703e ea9f 03be 2e35 613e
000001e0: 9384 903e e5fe 1b3e 5b88 a0be 59e0 b3be
000001f0: fa08 433e 941e 9ebe bd1b c93d 8c45 f7be
00000200: d528 ddbe 6ad6 1fbe 3fd7 89bd cd15 d43e
00000210: e664 79be ad9f f1be 714c b0be 4b50 883e
00000220: 33a9 e43d 9fe6 d13e fbf0 c6bd cdea b7be
00000230: bb76 2dbf f10b 6cbe 91cb 4abe 14cc 91be
00000240: 5ec5 933d 6cd0 2f3e 9ae4 39bf e128 b43d
00000250: 1b4a b6be cf60 65be 4260 de3e c687 823e
00000260: 9b9d 6f3e 1e63 86be 3cd4 34bd 06fc c7bc
00000270: 6f73 d23d b7ad 533e c730 bfbd 92ef 133e
00000280: ada1 993d b49e 8fba 85bb 74be 5494 753e
00000290: b7b2 ef3d 92cd 8a3d 83fe 15bf 31c9 a83e
000002a0: 6c27 bdbe 2d22 233d 5548 11be 9a0d 633d
000002b0: 0cf6 d03e 904d 70be 2e38 1ebd 3b3b 63bd
000002c0: 9712 acbe d8b5 2fbd 1717 69be d162 0fbf
000002d0: d4d9 b3be c0a8 a6be 5080 7cbe edde 1cbf
000002e0: 72d8 a23e 002e 9e3e 0687 ed3e bde6 01bd
000002f0: 3b11 a1bd 823c c0be bdb8 5bbe 92cb aabe
00000300: e626 dfbe edf1 41be 0d8a 883e fc20 443e
00000310: cafe 9a3d c2f1 c5bd c060 b63e 6c4f 933e
00000320: 53fc 0abf 4a7a d13a cd58 cdbe 7fca 753e
00000330: ee64 3abf 222f 9d3e 9795 3bbe 26cf cdbe
00000340: 65e8 21be c05a 5ebd f453 353e ea14 eebd
00000350: d1d1 2cbe 1d78 bfbc 300f 07bf 557f e63d
00000360: 5b52 41be c62b 8ebe be0a 0ebf b619 68bd
00000370: 77ba 7e3d 27f7 8fbe 31a3 9b3e 9678 e63c
00000380: 5614 0cbf 182f bdbe 86ea 773e 782d b03b
00000390: b5dc 813e bce8 97bd 83e6 acbd 4ee6 1cbf
000003a0: 26f8 16be ed12 eebd 59c3 b0be 8b94 983e
000003b0: 0af6 3f3e 77b3 eabe 3822 f7bd e1c2 873e
000003c0: e9e1 7ebe 45a4 043f 8f0d 8cbe 211c 483e
000003d0: 8e4c e73d 066a 79be 2927 003d 5bdc 17bf
000003e0: e00e 3cbd 1dd1 a63d f146 803e 4362 523d
000003f0: c498 d63b c6d9 18bd cab3 f3bd 903a 97bd
-0.55970865 0.2730094 0.2820487 0.2847072 0.024147624 -0.16739118 0.09723012 -0.24745403
0.3857255 0.15774746 -0.25723863 0.13675316 -0.20501798 -0.38644457 0.15307935 -0.10221308
-0.23710093 -0.37482178 0.03514777 0.3834445 0.2849705 -0.41996476 0.37400746 0.19804344
-0.008878171 -0.18807714 -0.328212 -0.21839058 0.074022174 0.20193668 -0.10875996 0.30620593
0.27794325 -0.30716914 -0.35755056 -0.043584343 0.18334518 0.075501464 -0.38628465 -0.023259321
-0.13737833 -0.18376864 -0.07419704 -0.23340891 -0.20609753 -0.04846891 0.22676595 -0.40756336
-0.0072629084 0.060877882 0.026514038 -0.25828624 0.10634757 -0.15902333 -0.51736087 0.33700302
-0.019899573 -0.22620484 0.28676462 -0.28372818 0.17556688 -0.30679348 -0.054653727 -0.42703515
0.14010143 -0.27710217 0.020707862 0.15985629 -0.080349356 0.16062388 -0.64500254 0.21785063
-0.015560707 0.22738011 0.04082154 0.14362186 -0.4787438 -0.24723208 -0.16568786 0.07882123
-0.570643 0.3485625 0.053387556 -0.15349087 -0.4634779 -0.049545534 -0.0369999 0.2383966
-0.1506535 -0.45729202 0.19427314 0.19529657 0.0062626894 -0.056130514 0.091441624 -0.4451909
-0.10335667 0.09608505 -0.33364823 0.13364239 -0.10505066 -0.3075807 0.15585586 -0.3853539
0.07363123 -0.2124866 -0.09693669 -0.3513348 -0.34622297 0.15210758 0.28833544 0.25370482
-0.24695013 0.06508743 -0.3565856 0.116105326 -0.13458669 0.23479223 -0.12853971 0.21992943
0.28226146 0.15233953 -0.3135403 -0.351321 0.19046393 -0.30882704 0.09819744 -0.48295248
-0.43195215 -0.15609136 -0.06730508 0.41422883 -0.24354896 -0.47192135 -0.3443332 0.2662376
0.11165085 0.40996262 -0.09713932 -0.35921326 -0.67759293 -0.2305143 -0.19804217 -0.28476012
0.07215379 0.1716935 -0.72614443 0.087968595 -0.35603413 -0.22400211 0.43432814 0.25494212
0.23399965 -0.26247495 -0.044147715 -0.024412166 0.102759235 0.20671736 -0.093354754 0.14446858
0.0750154 -0.0010957331 -0.23899658 0.23982364 0.11704009 0.06777491 -0.5859148 0.32965997
-0.3694414 0.039827514 -0.14187749 0.055432893 0.4081272 -0.23467088 -0.038627796 -0.05547641
-0.33607933 -0.04289803 -0.22762714 -0.56010157 -0.35127127 -0.3255062 -0.24658322 -0.6127766
0.3180576 0.3089447 0.46392077 -0.03171419 -0.078646146 -0.37546164 -0.21457191 -0.33358437
-0.43584365 -0.18939944 0.26667824 0.19153208 0.075681284 -0.09665252 0.3562069 0.28771532
-0.54291266 0.001598188 -0.40106812 0.24003027 -0.72810256 0.30700022 -0.18318783 -0.40197104
-0.15811308 -0.054285765 0.17707807 -0.11625083 -0.16876914 -0.023372704 -0.5275755 0.112547554
-0.18879072 -0.2776777 -0.5548514 -0.056665145 0.062189545 -0.2811825 0.30397943 0.028133672
-0.5471853 -0.36949992 0.24210557 0.005376514 0.253637 -0.074174374 -0.08442404 -0.6128892
-0.14743099 -0.116247036 -0.34524038 0.2980083 0.187462 -0.45840046 -0.120670736 0.26515868
-0.24890865 0.51813155 -0.27354094 0.1954198 0.112938985 -0.24356851 0.031287346 -0.5932061
-0.045912623 0.08145354 0.25054124 0.05136324 0.006548973 -0.03731706 -0.118995264 -0.07384217

sequential/dense_2/BiasAdd/ReadVariableOp:0 f4 [10]
00000000: 7cac 0abe 7df4 3fbe 198a 173d ddc8 a9bd
00000010: 165b b23d 0ed5 313c be49 d9bd a65d 20be
00000020: e419 8a3e 2cb2 e53d
-0.1354236 -0.18745609 0.036996935 -0.08290265 0.087087795 0.010854019 -0.10609768 -0.15660724
0.26972878 0.11215624

sequential/dense_1/MatMul/ReadVariableOp:0 f4 [128, 64]
00000000: 87ef eb3d 6f5b 023e 9807 043e 0c99 ebbe
00000010: 00ea 693d c4b0 903e eef8 06be c139 643e
00000020: e2f4 9bbe eb02 a1bc f869 7dbe e91a 3ebe
00000030: 94b4 0cbe d56c 5bbd 487c 3a3e 79e4 8ebe
00000040: b7f6 0a3e 70d9 c9bd 2271 353d b511 1c3e
00000050: a226 d93d 3d68 fa3d fb46 a8be 8c4f 5c3e
00000060: 93f2 b6bd cc24 f53c b8f1 433e bc4a 82bc
00000070: 0e20 3f3e 5e81 653d a0a3 9e3c a756 783e
00000080: ae6f 3dbe 92ee ecbd fad0 13be eef7 9d3d
00000090: 098e fd3d aac3 b43d 86c1 493e 38f9 3c3e
000000a0: 5e4c 62bd d13a 65be 9f39 19be 820a 7fbe
000000b0: 1555 033e 4079 303e b17e 6abd 9900 4cbe
000000c0: 5870 15be f3ce 0cbe dbbf c13d 73f4 8abd
000000d0: e6a1 673d 5f16 6f3e a566 043d b442 d9bd
000000e0: f94a 42b8 edcd 363d abe6 3d3e edcc 2f3e
000000f0: be85 58be f20c 10be aa45 a53e c41d cf3d
00000100: 5c55 efbd 60e5 ff3d 7341 2e3e 2150 86be
00000110: e00c c23d 8fd2 1d3e e11c c5bd 4966 ed3c
00000120: a701 0abe a9b9 223e 773c 143e cc43 ad3d
00000130: 712b b53b 2b36 313e 0e51 17be 7b01 14bd
00000140: 4828 733e d8c6 c1bd b223 a1bd 1786 c63d
00000150: a111 28be 2018 abbd e3e1 ce3c 1420 243e
00000160: d158 aabd d095 30be c0ef 803e 7702 abbb
00000170: 6115 333e 1d7d 273e 1b9d 8e3d 2bee 58be
00000180: d90e 82be 8345 e2bd f5f8 7c3e ba01 55bb
00000190: 304c 22bd 365c 473e b79a 8dbe 0b6f 413c
000001a0: 989e 803d 2333 e2bd c457 1e3e 052c 36be
000001b0: 822a 173e e4c4 0abe 25cd 49be 9934 fabc
000001c0: 95f1 8f3e b725 bebd 43ba 083e e747 27be
000001d0: 86bc c93d 901a fe3d 682b 82be 2333 193d
000001e0: cf84 643c 841a 90bd 70e5 73bd 5ee0 2ebe
000001f0: d924 3b3e c006 863c ecdd 0a3e 431c 4bbd
00000200: 1c8a 5c3e 5e6e 01bf 2210 22bd 279f 8b3d
00000210: 2a09 8ebd bc0c 7a3e f565 61be d755 6abe
00000220: c300 853e ce2c 0c3e 3eab 7dbd 9cf6 a5bc
00000230: 4631 0d3e b92d 6e3e f956 f1bd 4e8a cbbc
00000240: 9145 bebd 6475 9d3d fd4b d8bd 03d9 cfbb
00000250: 0005 89be 78cc 253e 5ef0 4b3e bacb 90be
00000260: c12e 163e e682 583e 3797 8ebb 8c6f b93d
00000270: 4d89 9d3e 33d3 803e f281 febd 0c6e 1fbe
00000280: 3d64 883d c404 aabd 79f0 39be e8a9 643e
00000290: 884f 2b3e b982 4fbe 3f40 09bd c72a 1ebe
000002a0: b53b 0d3e 542c 3cbe 81b0 523e 6b1f 6abd
000002b0: 2e75 8bbe bef4 2dbd 8e35 2abe 8854 773e
000002c0: 5735 39be 7147 82be 6b46 3c3e e56c adbe
000002d0: a5ac 1cbe 05d0 c3bd e0a1 dcbd 2935 2e3e
000002e0: bfdc 673d 069f 253c ab3a 87bd 34f2 a43c
000002f0: f9b6 efbb 547d ae3e 3dee 523d 54df 7a3e
00000300: 4ab4 d9be 0668 9d3c dbc3 1ebe 898d aebd
00000310: 451d 09be d40b 3c3e 3206 46be 4e83 ae3d
00000320: 47df 1e3e 9697 f23d 8aa2 7dbe 7daa bc3e
00000330: e238 00bf 8d56 9e3e f1da c73e a33a d03d
00000340: 831d 513e 61b3 1bbe ab3a 153e 0f80 e8bd
00000350: 541a 0abe 1268 cf3e 13bc 83be 0488 f23e
00000360: 7e75 8fbe 0533 793c dcfa 4b3e e3e5 a3bd
00000370: ec04 0b3d 754d e6be 1c96 2f3e adee 2d3e
00000380: ba38 643e f531 0fbe 94c9 ce3d da5d 29be
00000390: 8086 a8bd 70d8 1f3e 3b0d b4bd a8e6 81b9
000003a0: 851a ee3d 1ab2 9f3e af2c 923c 1249 173e
000003b0: 6a70 e3be 0fdb b1be 934c 9bbe e3b6 6e3d
000003c0: a362 233e 22f6 2a3e 8baa c23e a222 ec3e
000003d0: cef0 ddbd 364f 7dbe 0673 4dbe 4420 e73e
000003e0: 778c 22bf a8b1 403e be5a 713c f036 363e
000003f0: a5ce 60be 746b c3bd 246d 873e eefb fb3e
0.115202956 0.12730192 0.12893522 -0.46015203 0.057107925 0.2825986 -0.13180897 0.22287656
-0.30460268 -0.019654712 -0.24747455 -0.18564953 -0.1374076 -0.053570587 0.18211472 -0.27908686
0.13570677 -0.09855926 0.044297345 0.1524113 0.10603072 0.12226913 -0.32866654 0.2151472
-0.08932986 0.029924773 0.19135177 -0.015904777 0.18664572 0.056031577 0.019365132 0.24251805
-0.18499634 -0.11568941 -0.14435187 0.077133045 0.12380607 0.088263825 0.1970273 0.18454444
-0.05524861 -0.22385718 -0.14963387 -0.24906352 0.12825425 0.17233753 -0.05724973 -0.19922103
-0.14593637 -0.1375082 0.09460422 -0.06784906 0.056550883 0.23348378 0.032324452 -0.10608426
-4.6323028e-05 0.04462998 0.18545024 0.17168017 -0.21144769 -0.14067438 0.32279712 0.10113099
-0.11686203 0.12494922 0.17017154 -0.26233009 0.09475112 0.15412353 -0.09624649 0.028979437
-0.13477193 0.15891136 0.1447619 0.08460197 0.0055288603 0.1730582 -0.14777014 -0.036134224
0.23745835 -0.094617546 -0.078681365 0.09693544 -0.16412975 -0.08354211 0.025254196 0.16027862
-0.08317722 -0.17244649 0.25182915 -0.0052187997 0.17488624 0.1635632 0.06963559 -0.21184604
-0.25401953 -0.110484146 0.24704345 -0.003250225 -0.03962344 0.1946877 -0.276571 0.01180626
0.06280249 -0.1104491 0.15463167 -0.1779023 0.14762309 -0.1355167 -0.19707163 -0.030542659
0.28114 -0.09284537 0.13352303 -0.16336022 0.09850411 0.1240741 -0.2542374 0.037402283
0.01394768 -0.070363075 -0.05954498 -0.17077777 0.18275775 0.01636064 0.13561219 -0.0495875
0.2153706 -0.5055903 -0.039566167 0.06817465 -0.06935342 0.2441892 -0.2201155 -0.22884308
0.25977144 0.13688967 -0.061930887 -0.020259194 0.13788328 0.2325963 -0.11784167 -0.024846222
-0.092906125 0.07688406 -0.105613686 -0.0063430085 -0.26761627 0.1619128 0.19915912 -0.2828043
0.14666273 0.21143684 -0.0043515223 0.09054479 0.30768815 0.25161132 -0.12427129 -0.15569323
0.06659744 -0.0830169 -0.1815814 0.22330439 0.16729558 -0.2026471 -0.033508535 -0.15446006
0.13792308 -0.18376285 0.20575143 -0.05715887 -0.27237839 -0.042469732 -0.16621992 0.2415334
-0.18086754 -0.2544513 0.18386237 -0.33872142 -0.15300234 -0.09561161 -0.10773063 0.17012466
0.056607004 0.010108715 -0.06602987 0.020135023 -0.007315513 0.34079993 0.051496733 0.24499255
-0.42520362 0.019214641 -0.155044 -0.085230894 -0.13390072 0.18363887 -0.19338301 0.08521138
0.15514861 0.11845319 -0.24769035 0.36848822 -0.50086796 0.30925408 0.39034227 0.10167434
0.20421414 -0.15205146 0.14573161 -0.1135255 -0.13486606 0.40509087 -0.25729427 0.47369397
-0.28019327 0.015209918 0.19919914 -0.08002832 0.03394024 -0.4498097 0.17147106 0.16985579
0.22287264 -0.13983901 0.10097042 -0.16539708 -0.08228779 0.15609908 -0.08791586 -0.0002477665
0.11626152 0.31190568 0.017843572 0.14773968 -0.44421703 -0.3473744 -0.3033186 0.058279883
0.15955596 0.16695455 0.3802074 0.46120173 -0.108369455 -0.24737248 -0.20063409 0.45141804
-0.6349558 0.1881777 0.014731107 0.17794394 -0.21953829 -0.095419794 0.26450455 0.49215645

sequential/dense_1/BiasAdd/ReadVariableOp:0 f4 [64]
00000000: 8588 2d3e dc35 5b3e 71d9 6a3d bc98 debd
00000010: ef31 823c 7155 873e 0408 903d fcc7 6f3c
00000020: 8638 08be 34c8 14be b2a5 e43d c3d3 eebd
00000030: aff1 96bd 8392 37bd 81c1 1dbe b01c e1bd
00000040: cb85 d7bd 3709 10bd 7a6c 073e 1c63 bb3e
00000050: 35a2 a3bd 647a 3cbd b192 163e a861 7a3d
00000060: b676 b0bd 2ad8 88bd e78a ca3d 05e2 973c
00000070: 1d81 ce3d 0452 203e 536e 513e 434c fc3d
00000080: 0316 c5bd 381f 7f3a 2c3e 0e3e 6228 46bd
00000090: 0501 4f3e ddff 363e 5fcf 173d e239 ee3d
000000a0: 11b5 35be 53d4 e9bc c553 91bd c999 65bd
000000b0: f156 6c3d 678f e13d 32cc 39bc 69c2 f0bd
000000c0: 66f2 293e 3411 ea3c 3ea7 8b3e a739 153d
000000d0: 4052 29bd ec7d d73d 45fb ae3d fdc9 063e
000000e0: 653d b43d d3cf d33d 426e 1dbd 06e8 9dbd
000000f0: f508 02be 3688 c2bc 80f1 e5bc 24a2 083e
0.1694661 0.21407264 0.057336275 -0.108689755 0.01589295 0.26432374 0.07032779 0.014635082
-0.13302812 -0.14529496 0.111644164 -0.11661484 -0.07370316 -0.04481746 -0.15405847 -0.109918
-0.10523566 -0.035165038 0.13224974 0.36599052 -0.07989923 -0.04601516 0.14704396 0.06112829
-0.08616392 -0.06681855 0.09889775 0.018540392 0.1008322 0.15656286 0.20452242 0.12319233
-0.09623339 0.000973213 0.13890904 -0.048378356 0.20215233 0.17871042 0.037063 0.11632134
-0.17744853 -0.028543627 -0.07096056 -0.056054864 0.0577001 0.1101368 -0.011340188 -0.11755831
0.16596374 0.028572656 0.27276033 0.036431935 -0.041338205 0.105220646 0.085440196 0.1316299
0.088007726 0.10342374 -0.03843523 -0.077102706 -0.1269873 -0.023746591 -0.028069258 0.13343102

sequential/dense/MatMul/ReadVariableOp:0 f4 [784, 128]
00000000: 9047 c6bb 4bfc 8b3d 0e61 653d 0e1c 6d3d
00000010: d619 493d ae2a 613d 11e6 97bd 580e 3e3c
00000020: 89c8 18bd 6879 1b3d d0c4 24bd 1e0f 753d
00000030: 6087 163d 0066 123c 47f4 883d 5a47 6c3d
00000040: 9af3 5fbd 9877 c03c 4051 b9bc d4fa 80bc
00000050: 2878 2bbc ee1d 423d 8d3e 40bd 705b b63b
00000060: 2a6f 653d 4212 f4bc e114 9ebd 82c6 d1bc
00000070: 1cdd 91bd 20ae 333c 702b 0d3c db7d 6ebd
00000080: 6e01 663d 0aed 64bd fcc0 b6bc 0b9b 923d
00000090: 84f2 79bd f667 4fbd ca5a 7a3d 44bc 92bd
000000a0: e03e 97bd fe2f 6b3d 5b11 48bd 78a4 d23c
000000b0: 000b 023d 4bb6 92bd eecf 783d 7c7b 323d
000000c0: df72 6fbd 3b7b 973d a4f4 79bd e24b ffbc
000000d0: 00aa 72bd 4903 28bd de6d debc d00d 57bd
000000e0: e8a8 6cbc 6b4a 803d 8054 253d 2ce6 b93c
000000f0: 348b 87bd 20ce 09bc b408 94bc 67fa 933d
00000100: 00c0 4539 ae4f 6e3d 56c3 13bd 92d9 583d
00000110: 72ab 61bd c252 30bd 9d57 0abd 8e5b dabc
00000120: d0e7 7b3c 7610 573d c890 913c a6e9 5fbd
00000130: b279 633d 609b 233c 390a 45bd e0c2 023d
00000140: 719e 8d3d 6c78 8abd b43b c2bc 8be9 87bd
00000150: 9ce6 b73c 016e a43d 7cd5 a4bc d1f0 41bd
00000160: a8f2 e33c 9a4d 213d d0cc 2c3c 28e9 44bc
00000170: 4d36 a43d 20dc 69bc 626e c6bc 5db5 923d
00000180: 6efe f8bc cc44 953c 6438 283d 2b14 91bd
00000190: 9078 0e3d 70bb 10bc 94e3 cf3c 5c40 2b3d
000001a0: 4067 483c 5e0e 423d b397 83bd 484c 07bd
000001b0: 0bf6 813d ebf0 9bbd 1897 a23c cf6f a13d
000001c0: 506c 5dbc dc6c c73c 6f9e 10bd b231 5f3d
000001d0: 861a 4d3d 63c4 89bd ba35 4a3d 0ab0 643d
000001e0: a020 0a3c 8e08 0f3d 9843 47bc 7886 1b3d
000001f0: 0013 53bb b4c8 80bd 3f51 35bd f830 65bc
00000200: a0d5 02bc 621e 3a3d 38c4 69bc 88d2 0ebc
00000210: 56ed 633d 414d 993d 329d 5f3d 6106 953d
00000220: 80ce fdbc d0a8 193c 0416 893c 7e9c 7fbd
00000230: 2287 523d de14 8cbd cd6f 14bd f0ed 093c
00000240: c011 16bc 1e33 353d a6c2 733d 38c0 edbc
00000250: ae71 773d 668f efbc b0c9 d83c d477 9c3c
00000260: 1076 89bd 58f9 f93c 3673 99bc 7509 853d
00000270: 002b 01ba c61c 493d 309c 1bbd 72fa a4bd
00000280: 7a58 3ebd b0e6 f2bb 73db 993d 8879 f33c
00000290: e857 1ebd ce91 633d 40ab e0ba 8054 5eba
000002a0: 495b 8e3d 3663 193d 03d8 8e3d c2cf 783d
000002b0: fa8e 6f3d eb9d 85bd 37f9 95bd 919a 2dbd
000002c0: 681a 4f3c 7814 67bc 00f3 c03c 6ea9 cebc
000002d0: 8bb5 94bd 2200 403d 918b 2bbd 60da 49bb
000002e0: 07e9 0ebd 733c 3ebd 9cf6 0d3d e0d5 a4bd
000002f0: 7006 94bd 0025 74bc 9682 61bd 1a28 6ebd
00000300: 1e28 663d fea3 71bd 84ee 853c 306a c43c
00000310: 53db 2cbd 8057 a23b d6aa c7bc f216 18bd
00000320: 5b73 8d3d a04a 433c e7d6 5abd c768 70bd
00000330: 5eb0 343d a842 5fbc 6020 61bb 2029 64bb
00000340: 8f7e 99bd 9a24 1e3d 7c15 9fbd 10c1 163d
00000350: 635a a23d b10c a4bd e42d b93c 3cce 923c
00000360: 4098 b73c 2495 ddbc 7e49 a6bc d038 9b3b
00000370: ce52 783d 56c8 4ebd 0048 e839 eac4 0e3d
00000380: 2681 413d 204e 32bb 48da ebbc ef8b 12bd
00000390: 680a 613c 9a2e a5bd b523 2fbd ede2 9a3d
000003a0: 0076 903a cc04 a93c 92f0 073d d1f1 a43d
000003b0: a0c1 06bb 02ae 1b3d bc3e 12bd 6a6d 99bd
000003c0: e0ce 2a3c 4edf 3f3d 8048 cfba a0c5 9dbd
000003d0: a84b a8bc 8039 8eba 40ad a53b 280c 96bd
000003e0: 0619 6cbd 5862 19bd b0f7 5bbc 202c f73c
000003f0: 182e 1ebd e73e 93bd 8800 50bc 26eb 92bd
-0.0060510114 0.068352304 0.05600076 0.057888083 0.049096905 0.054972343 -0.074169286 0.0116000995
-0.03730062 0.03795758 -0.040226758 0.05982887 0.036750197 0.0089354515 0.06687217 0.057685234
-0.054675676 0.023494527 -0.02262175 -0.015744604 -0.010465659 0.047391824 -0.046934653 0.0055650994
0.056014217 -0.029793862 -0.07718826 -0.025607351 -0.071222514 0.010966808 0.008616313 -0.058225494
0.056153707 -0.05589012 -0.022308819 0.07158478 -0.061022297 -0.050636254 0.06112174 -0.07164815
-0.07385039 0.057418816 -0.048844676 0.02571319 0.03174877 -0.07163676 0.060745172 0.043574795
-0.05845916 0.07396551 -0.061024323 -0.031164113 -0.059244156 -0.041018758 -0.027151998 -0.052503407
-0.014444567 0.06264194 0.04036379 0.022692762 -0.06618348 -0.00841096 -0.018070556 0.07225495
0.0001885891 0.058181457 -0.03607496 0.052941866 -0.055095144 -0.043047674 -0.03377496 -0.026654985
0.015375093 0.052505933 0.017769232 -0.054666184 0.05553598 0.009985775 -0.048105452 0.03192413
0.06914986 -0.0676125 -0.02371011 -0.06636342 0.02244883 0.08028794 -0.020121329 -0.0473488
0.027825668 0.039380647 0.010546878 -0.012018479 0.080181696 -0.014273673 -0.024222557 0.071634986
-0.030394759 0.018221281 0.041069403 -0.07083925 0.034782946 -0.008833751 0.025377072 0.041809425
0.012231648 0.047376983 -0.06425419 -0.03303173 0.06345757 -0.07614311 0.019847438 0.07882654
-0.013514593 0.0243439 -0.035307344 0.054490753 0.050074123 -0.06726911 0.049367644 0.055831946
0.00843063 0.034920268 -0.012162112 0.037970036 -0.003220737 -0.06288281 -0.044266935 -0.013988726
-0.0079855025 0.04543913 -0.014267974 -0.008717187 0.055646263 0.07485438 0.054593273 0.07276607
-0.030982256 0.009378627 0.01673413 -0.062405102 0.051398404 -0.068399176 -0.036239434 0.008418545
-0.009159505 0.044238202 0.059511803 -0.029022321 0.060411148 -0.029243182 0.02646336 0.019100107
-0.06711972 0.030514404 -0.018731695 0.064959444 -0.0004927367 0.049099706 -0.03799075 -0.08055581
-0.046471097 -0.007412754 0.0751256 0.029721037 -0.038658053 0.055558972 -0.001714088 -0.00084812194
0.06951005 0.03744813 0.06974795 0.06074501 0.058485962 -0.06524261 -0.073229246 -0.042383734
0.012640573 -0.014104001 0.023553371 -0.025227275 -0.07261189 0.046875127 -0.041881148 -0.0030800328
-0.0348902 -0.046444368 0.034659013 -0.08048606 -0.0722779 -0.0149014 -0.055056177 -0.058143713
0.056190602 -0.058994286 0.016349085 0.023976415 -0.04220135 0.0049542785 -0.024373453 -0.037131257
0.06906768 0.011919647 -0.053427603 -0.058693673 0.04411351 -0.013626732 -0.0034351572 -0.0034814551
-0.07494842 0.038609125 -0.0776777 0.036805212 0.07927396 -0.08010233 0.02260489 0.017920606
0.022411466 -0.027048655 -0.020298716 0.004736997 0.060625844 -0.050484024 0.00044304132 0.03485576
0.047242306 -0.002720721 -0.028790608 -0.035777982 0.013735391 -0.08065529 -0.042758662 0.07562814
0.0011021495 0.02063217 0.03318841 0.08053935 -0.0020562187 0.038007744 -0.03570436 -0.07491572
0.010425299 0.04684382 -0.0015814453 -0.077037096 -0.020543888 -0.0010850877 0.0050560534 -0.07326537
-0.05764105 -0.037447304 -0.0134257525 0.030172408 -0.038618177 -0.07189732 -0.012695439 -0.07173757

sequential/dense/BiasAdd/ReadVariableOp:0 f4 [128]
00000000: 356a b9bd 8f18 e7bc ec56 5abd 2b97 463e
00000010: 324f d73d afc6 e2bc cb18 7b3d 1782 a6bc
00000020: 70bf d23d 3694 73bc f867 94bb 28a6 693d
00000030: 713b 4bbe 3bae 6dbd 0aa0 d83d 7356 63bd
00000040: e4b1 103e e10f 3bbd 0d00 353d 1291 df38
00000050: cf44 b9bd ec70 463e 5be9 e8bc 68f0 c239
00000060: a39b 6cbb f535 81bb b75d f33d f438 a43d
00000070: 5a2e 223e b0a2 25be a60a 8b3c 4567 3cbd
00000080: 432d 593e a80c 31bd 661b 0ebd 814a 243e
00000090: b093 c13d 376a 483d 9ded 0f3e f99c 61bd
000000a0: c295 be3d b1bc db3c f58e 653d 83b6 14bd
000000b0: 2ed9 e93d d6ad 2e3d 9518 39bd 0af8 afbd
000000c0: 0ff9 cd3c 4a4c ebbc c0e3 6bbd 8959 ef3d
000000d0: b2ba 4a3d 2c77 bebc 3b79 fb3d 43a2 a5bc
000000e0: 3371 34bd 2d41 e9bc c75f ca3c 8ac5 bebd
000000f0: 4cf5 7dbd 39a0 e93d a370 fa3d 9bf3 0bbe
00000100: 5259 c2bd 6306 09bd 9731 ff3c cdb7 e63d
00000110: d8ab 923d 5801 b23d 9a43 fcbd 536d 743c
00000120: 5f00 023c ba15 3c3d 73af 39bc a459 923b
00000130: a14c 67bd 63fc 473e aa02 243e 77f2 65bd
00000140: d899 aa3c aa23 443d fc48 20be 4632 ab3d
00000150: e1c8 ff3c 30a1 b1bd 6172 b6bb 68a9 b03d
00000160: cf66 4cbd 3b7b 18be 69fb 603b 7ebc efbd
00000170: b00b 97bd c51c 253d 685c 0ebd 5798 f9bd
00000180: 54a1 513e c0b4 383c 7be2 903d a554 033e
00000190: e382 94bd a5a9 31be 906f 0cbe 283e db3b
000001a0: b987 17bd fe02 b1bd 4ffb 38bd f68b 41bd
000001b0: f5aa d43d c059 ab3c ca89 80be 0374 a5bd
000001c0: d54c 82bd 87ae 3e3d 3906 723e e067 fabd
000001d0: 88da 863d 7173 65bc 2e02 3e3d cfb1 ed3d
000001e0: 6a7d 2c3b da4f a53d a0a1 3d3c e027 8f3d
000001f0: e156 fcbd a2c6 443d 0722 e83d a9bd 74bd
-0.090534605 -0.028209953 -0.05330555 0.19393604 0.10513152 -0.02768263 0.06130294 -0.020325704
0.1029042 -0.014866879 -0.0045289956 0.057043225 -0.19846894 -0.058027487 0.105774 -0.055502366
0.1413036 -0.04566944 0.0441895 0.0001066049 -0.09046327 0.19379014 -0.028431585 0.0003718168
-0.003610351 -0.0039431998 0.11883109 0.080186754 0.15837994 -0.16175342 0.016972851 -0.045996923
0.21208672 -0.04322496 -0.034694098 0.16044046 0.09451997 0.04892942 0.14055486 -0.05508134
0.09305908 0.026823374 0.056044538 -0.03630687 0.11418377 0.04264625 -0.04518946 -0.085922316
0.025143174 -0.0287229 -0.057590246 0.11686999 0.049494453 -0.023250185 0.12278982 -0.020218974
-0.044053268 -0.028473461 0.024703873 -0.09315021 -0.06200151 0.11407513 0.12228515 -0.13667147
-0.09489693 -0.033453356 0.031151576 0.11265526 0.07161683 0.086916625 -0.123175815 0.014918643
0.007934659 0.045919158 -0.011333334 0.0044662524 -0.056469563 0.19529872 0.16016641 -0.056139436
0.020825312 0.047885574 -0.15652841 0.08359198 0.031223716 -0.08673322 -0.0055678342 0.08626062
-0.049902733 -0.14890759 0.003432954 -0.11705874 -0.07375276 0.04031064 -0.034756094 -0.1218726
0.20471698 0.011273563 0.07074448 0.12825258 -0.07251527 -0.1734987 -0.13714433 0.006690759
-0.03699467 -0.08643149 -0.04516154 -0.047252618 0.1038417 0.02091682 -0.25105125 -0.08078768
-0.06362311 0.04655316 0.23635186 -0.12226844 0.0658465 -0.014004574 0.046388797 0.1160618
0.002631987 0.08071871 0.011574179 0.069900274 -0.12321258 0.048040994 0.11334615 -0.059751187
